{
    "model_name": "ModelAdapter",
    "model_parameters": "ModelAdapter(\n  (conv1): Conv2d(2, 3, kernel_size=(1, 1), stride=(1, 1))\n  (base_model): UNet(\n    (backbone): Backbones(\n      (backbone): BackboneFactory(\n        (backbone): ResNet(\n          (conv1): Conv2d(3, 64, kernel_size=(7, 7), stride=(2, 2), padding=(3, 3), bias=False)\n          (bn1): BatchNorm2d(64, eps=1e-05, momentum=0.1, affine=True, track_running_stats=True)\n          (relu): ReLU(inplace=True)\n          (maxpool): MaxPool2d(kernel_size=3, stride=2, padding=1, dilation=1, ceil_mode=False)\n          (layer1): Sequential(\n            (0): Bottleneck(\n              (conv1): Conv2d(64, 256, kernel_size=(1, 1), stride=(1, 1), bias=False)\n              (bn1): BatchNorm2d(256, eps=1e-05, momentum=0.1, affine=True, track_running_stats=True)\n              (conv2): Conv2d(256, 256, kernel_size=(3, 3), stride=(1, 1), padding=(1, 1), groups=32, bias=False)\n              (bn2): BatchNorm2d(256, eps=1e-05, momentum=0.1, affine=True, track_running_stats=True)\n              (conv3): Conv2d(256, 256, kernel_size=(1, 1), stride=(1, 1), bias=False)\n              (bn3): BatchNorm2d(256, eps=1e-05, momentum=0.1, affine=True, track_running_stats=True)\n              (relu): ReLU(inplace=True)\n              (downsample): Sequential(\n                (0): Conv2d(64, 256, kernel_size=(1, 1), stride=(1, 1), bias=False)\n                (1): BatchNorm2d(256, eps=1e-05, momentum=0.1, affine=True, track_running_stats=True)\n              )\n            )\n            (1): Bottleneck(\n              (conv1): Conv2d(256, 256, kernel_size=(1, 1), stride=(1, 1), bias=False)\n              (bn1): BatchNorm2d(256, eps=1e-05, momentum=0.1, affine=True, track_running_stats=True)\n              (conv2): Conv2d(256, 256, kernel_size=(3, 3), stride=(1, 1), padding=(1, 1), groups=32, bias=False)\n              (bn2): BatchNorm2d(256, eps=1e-05, momentum=0.1, affine=True, track_running_stats=True)\n              (conv3): Conv2d(256, 256, kernel_size=(1, 1), stride=(1, 1), bias=False)\n              (bn3): BatchNorm2d(256, eps=1e-05, momentum=0.1, affine=True, track_running_stats=True)\n              (relu): ReLU(inplace=True)\n            )\n            (2): Bottleneck(\n              (conv1): Conv2d(256, 256, kernel_size=(1, 1), stride=(1, 1), bias=False)\n              (bn1): BatchNorm2d(256, eps=1e-05, momentum=0.1, affine=True, track_running_stats=True)\n              (conv2): Conv2d(256, 256, kernel_size=(3, 3), stride=(1, 1), padding=(1, 1), groups=32, bias=False)\n              (bn2): BatchNorm2d(256, eps=1e-05, momentum=0.1, affine=True, track_running_stats=True)\n              (conv3): Conv2d(256, 256, kernel_size=(1, 1), stride=(1, 1), bias=False)\n              (bn3): BatchNorm2d(256, eps=1e-05, momentum=0.1, affine=True, track_running_stats=True)\n              (relu): ReLU(inplace=True)\n            )\n          )\n          (layer2): Sequential(\n            (0): Bottleneck(\n              (conv1): Conv2d(256, 512, kernel_size=(1, 1), stride=(1, 1), bias=False)\n              (bn1): BatchNorm2d(512, eps=1e-05, momentum=0.1, affine=True, track_running_stats=True)\n              (conv2): Conv2d(512, 512, kernel_size=(3, 3), stride=(2, 2), padding=(1, 1), groups=32, bias=False)\n              (bn2): BatchNorm2d(512, eps=1e-05, momentum=0.1, affine=True, track_running_stats=True)\n              (conv3): Conv2d(512, 512, kernel_size=(1, 1), stride=(1, 1), bias=False)\n              (bn3): BatchNorm2d(512, eps=1e-05, momentum=0.1, affine=True, track_running_stats=True)\n              (relu): ReLU(inplace=True)\n              (downsample): Sequential(\n                (0): Conv2d(256, 512, kernel_size=(1, 1), stride=(2, 2), bias=False)\n                (1): BatchNorm2d(512, eps=1e-05, momentum=0.1, affine=True, track_running_stats=True)\n              )\n            )\n            (1): Bottleneck(\n              (conv1): Conv2d(512, 512, kernel_size=(1, 1), stride=(1, 1), bias=False)\n              (bn1): BatchNorm2d(512, eps=1e-05, momentum=0.1, affine=True, track_running_stats=True)\n              (conv2): Conv2d(512, 512, kernel_size=(3, 3), stride=(1, 1), padding=(1, 1), groups=32, bias=False)\n              (bn2): BatchNorm2d(512, eps=1e-05, momentum=0.1, affine=True, track_running_stats=True)\n              (conv3): Conv2d(512, 512, kernel_size=(1, 1), stride=(1, 1), bias=False)\n              (bn3): BatchNorm2d(512, eps=1e-05, momentum=0.1, affine=True, track_running_stats=True)\n              (relu): ReLU(inplace=True)\n            )\n            (2): Bottleneck(\n              (conv1): Conv2d(512, 512, kernel_size=(1, 1), stride=(1, 1), bias=False)\n              (bn1): BatchNorm2d(512, eps=1e-05, momentum=0.1, affine=True, track_running_stats=True)\n              (conv2): Conv2d(512, 512, kernel_size=(3, 3), stride=(1, 1), padding=(1, 1), groups=32, bias=False)\n              (bn2): BatchNorm2d(512, eps=1e-05, momentum=0.1, affine=True, track_running_stats=True)\n              (conv3): Conv2d(512, 512, kernel_size=(1, 1), stride=(1, 1), bias=False)\n              (bn3): BatchNorm2d(512, eps=1e-05, momentum=0.1, affine=True, track_running_stats=True)\n              (relu): ReLU(inplace=True)\n            )\n            (3): Bottleneck(\n              (conv1): Conv2d(512, 512, kernel_size=(1, 1), stride=(1, 1), bias=False)\n              (bn1): BatchNorm2d(512, eps=1e-05, momentum=0.1, affine=True, track_running_stats=True)\n              (conv2): Conv2d(512, 512, kernel_size=(3, 3), stride=(1, 1), padding=(1, 1), groups=32, bias=False)\n              (bn2): BatchNorm2d(512, eps=1e-05, momentum=0.1, affine=True, track_running_stats=True)\n              (conv3): Conv2d(512, 512, kernel_size=(1, 1), stride=(1, 1), bias=False)\n              (bn3): BatchNorm2d(512, eps=1e-05, momentum=0.1, affine=True, track_running_stats=True)\n              (relu): ReLU(inplace=True)\n            )\n          )\n          (layer3): Sequential(\n            (0): Bottleneck(\n              (conv1): Conv2d(512, 1024, kernel_size=(1, 1), stride=(1, 1), bias=False)\n              (bn1): BatchNorm2d(1024, eps=1e-05, momentum=0.1, affine=True, track_running_stats=True)\n              (conv2): Conv2d(1024, 1024, kernel_size=(3, 3), stride=(2, 2), padding=(1, 1), groups=32, bias=False)\n              (bn2): BatchNorm2d(1024, eps=1e-05, momentum=0.1, affine=True, track_running_stats=True)\n              (conv3): Conv2d(1024, 1024, kernel_size=(1, 1), stride=(1, 1), bias=False)\n              (bn3): BatchNorm2d(1024, eps=1e-05, momentum=0.1, affine=True, track_running_stats=True)\n              (relu): ReLU(inplace=True)\n              (downsample): Sequential(\n                (0): Conv2d(512, 1024, kernel_size=(1, 1), stride=(2, 2), bias=False)\n                (1): BatchNorm2d(1024, eps=1e-05, momentum=0.1, affine=True, track_running_stats=True)\n              )\n            )\n            (1): Bottleneck(\n              (conv1): Conv2d(1024, 1024, kernel_size=(1, 1), stride=(1, 1), bias=False)\n              (bn1): BatchNorm2d(1024, eps=1e-05, momentum=0.1, affine=True, track_running_stats=True)\n              (conv2): Conv2d(1024, 1024, kernel_size=(3, 3), stride=(1, 1), padding=(1, 1), groups=32, bias=False)\n              (bn2): BatchNorm2d(1024, eps=1e-05, momentum=0.1, affine=True, track_running_stats=True)\n              (conv3): Conv2d(1024, 1024, kernel_size=(1, 1), stride=(1, 1), bias=False)\n              (bn3): BatchNorm2d(1024, eps=1e-05, momentum=0.1, affine=True, track_running_stats=True)\n              (relu): ReLU(inplace=True)\n            )\n            (2): Bottleneck(\n              (conv1): Conv2d(1024, 1024, kernel_size=(1, 1), stride=(1, 1), bias=False)\n              (bn1): BatchNorm2d(1024, eps=1e-05, momentum=0.1, affine=True, track_running_stats=True)\n              (conv2): Conv2d(1024, 1024, kernel_size=(3, 3), stride=(1, 1), padding=(1, 1), groups=32, bias=False)\n              (bn2): BatchNorm2d(1024, eps=1e-05, momentum=0.1, affine=True, track_running_stats=True)\n              (conv3): Conv2d(1024, 1024, kernel_size=(1, 1), stride=(1, 1), bias=False)\n              (bn3): BatchNorm2d(1024, eps=1e-05, momentum=0.1, affine=True, track_running_stats=True)\n              (relu): ReLU(inplace=True)\n            )\n            (3): Bottleneck(\n              (conv1): Conv2d(1024, 1024, kernel_size=(1, 1), stride=(1, 1), bias=False)\n              (bn1): BatchNorm2d(1024, eps=1e-05, momentum=0.1, affine=True, track_running_stats=True)\n              (conv2): Conv2d(1024, 1024, kernel_size=(3, 3), stride=(1, 1), padding=(1, 1), groups=32, bias=False)\n              (bn2): BatchNorm2d(1024, eps=1e-05, momentum=0.1, affine=True, track_running_stats=True)\n              (conv3): Conv2d(1024, 1024, kernel_size=(1, 1), stride=(1, 1), bias=False)\n              (bn3): BatchNorm2d(1024, eps=1e-05, momentum=0.1, affine=True, track_running_stats=True)\n              (relu): ReLU(inplace=True)\n            )\n            (4): Bottleneck(\n              (conv1): Conv2d(1024, 1024, kernel_size=(1, 1), stride=(1, 1), bias=False)\n              (bn1): BatchNorm2d(1024, eps=1e-05, momentum=0.1, affine=True, track_running_stats=True)\n              (conv2): Conv2d(1024, 1024, kernel_size=(3, 3), stride=(1, 1), padding=(1, 1), groups=32, bias=False)\n              (bn2): BatchNorm2d(1024, eps=1e-05, momentum=0.1, affine=True, track_running_stats=True)\n              (conv3): Conv2d(1024, 1024, kernel_size=(1, 1), stride=(1, 1), bias=False)\n              (bn3): BatchNorm2d(1024, eps=1e-05, momentum=0.1, affine=True, track_running_stats=True)\n              (relu): ReLU(inplace=True)\n            )\n            (5): Bottleneck(\n              (conv1): Conv2d(1024, 1024, kernel_size=(1, 1), stride=(1, 1), bias=False)\n              (bn1): BatchNorm2d(1024, eps=1e-05, momentum=0.1, affine=True, track_running_stats=True)\n              (conv2): Conv2d(1024, 1024, kernel_size=(3, 3), stride=(1, 1), padding=(1, 1), groups=32, bias=False)\n              (bn2): BatchNorm2d(1024, eps=1e-05, momentum=0.1, affine=True, track_running_stats=True)\n              (conv3): Conv2d(1024, 1024, kernel_size=(1, 1), stride=(1, 1), bias=False)\n              (bn3): BatchNorm2d(1024, eps=1e-05, momentum=0.1, affine=True, track_running_stats=True)\n              (relu): ReLU(inplace=True)\n            )\n            (6): Bottleneck(\n              (conv1): Conv2d(1024, 1024, kernel_size=(1, 1), stride=(1, 1), bias=False)\n              (bn1): BatchNorm2d(1024, eps=1e-05, momentum=0.1, affine=True, track_running_stats=True)\n              (conv2): Conv2d(1024, 1024, kernel_size=(3, 3), stride=(1, 1), padding=(1, 1), groups=32, bias=False)\n              (bn2): BatchNorm2d(1024, eps=1e-05, momentum=0.1, affine=True, track_running_stats=True)\n              (conv3): Conv2d(1024, 1024, kernel_size=(1, 1), stride=(1, 1), bias=False)\n              (bn3): BatchNorm2d(1024, eps=1e-05, momentum=0.1, affine=True, track_running_stats=True)\n              (relu): ReLU(inplace=True)\n            )\n            (7): Bottleneck(\n              (conv1): Conv2d(1024, 1024, kernel_size=(1, 1), stride=(1, 1), bias=False)\n              (bn1): BatchNorm2d(1024, eps=1e-05, momentum=0.1, affine=True, track_running_stats=True)\n              (conv2): Conv2d(1024, 1024, kernel_size=(3, 3), stride=(1, 1), padding=(1, 1), groups=32, bias=False)\n              (bn2): BatchNorm2d(1024, eps=1e-05, momentum=0.1, affine=True, track_running_stats=True)\n              (conv3): Conv2d(1024, 1024, kernel_size=(1, 1), stride=(1, 1), bias=False)\n              (bn3): BatchNorm2d(1024, eps=1e-05, momentum=0.1, affine=True, track_running_stats=True)\n              (relu): ReLU(inplace=True)\n            )\n            (8): Bottleneck(\n              (conv1): Conv2d(1024, 1024, kernel_size=(1, 1), stride=(1, 1), bias=False)\n              (bn1): BatchNorm2d(1024, eps=1e-05, momentum=0.1, affine=True, track_running_stats=True)\n              (conv2): Conv2d(1024, 1024, kernel_size=(3, 3), stride=(1, 1), padding=(1, 1), groups=32, bias=False)\n              (bn2): BatchNorm2d(1024, eps=1e-05, momentum=0.1, affine=True, track_running_stats=True)\n              (conv3): Conv2d(1024, 1024, kernel_size=(1, 1), stride=(1, 1), bias=False)\n              (bn3): BatchNorm2d(1024, eps=1e-05, momentum=0.1, affine=True, track_running_stats=True)\n              (relu): ReLU(inplace=True)\n            )\n            (9): Bottleneck(\n              (conv1): Conv2d(1024, 1024, kernel_size=(1, 1), stride=(1, 1), bias=False)\n              (bn1): BatchNorm2d(1024, eps=1e-05, momentum=0.1, affine=True, track_running_stats=True)\n              (conv2): Conv2d(1024, 1024, kernel_size=(3, 3), stride=(1, 1), padding=(1, 1), groups=32, bias=False)\n              (bn2): BatchNorm2d(1024, eps=1e-05, momentum=0.1, affine=True, track_running_stats=True)\n              (conv3): Conv2d(1024, 1024, kernel_size=(1, 1), stride=(1, 1), bias=False)\n              (bn3): BatchNorm2d(1024, eps=1e-05, momentum=0.1, affine=True, track_running_stats=True)\n              (relu): ReLU(inplace=True)\n            )\n            (10): Bottleneck(\n              (conv1): Conv2d(1024, 1024, kernel_size=(1, 1), stride=(1, 1), bias=False)\n              (bn1): BatchNorm2d(1024, eps=1e-05, momentum=0.1, affine=True, track_running_stats=True)\n              (conv2): Conv2d(1024, 1024, kernel_size=(3, 3), stride=(1, 1), padding=(1, 1), groups=32, bias=False)\n              (bn2): BatchNorm2d(1024, eps=1e-05, momentum=0.1, affine=True, track_running_stats=True)\n              (conv3): Conv2d(1024, 1024, kernel_size=(1, 1), stride=(1, 1), bias=False)\n              (bn3): BatchNorm2d(1024, eps=1e-05, momentum=0.1, affine=True, track_running_stats=True)\n              (relu): ReLU(inplace=True)\n            )\n            (11): Bottleneck(\n              (conv1): Conv2d(1024, 1024, kernel_size=(1, 1), stride=(1, 1), bias=False)\n              (bn1): BatchNorm2d(1024, eps=1e-05, momentum=0.1, affine=True, track_running_stats=True)\n              (conv2): Conv2d(1024, 1024, kernel_size=(3, 3), stride=(1, 1), padding=(1, 1), groups=32, bias=False)\n              (bn2): BatchNorm2d(1024, eps=1e-05, momentum=0.1, affine=True, track_running_stats=True)\n              (conv3): Conv2d(1024, 1024, kernel_size=(1, 1), stride=(1, 1), bias=False)\n              (bn3): BatchNorm2d(1024, eps=1e-05, momentum=0.1, affine=True, track_running_stats=True)\n              (relu): ReLU(inplace=True)\n            )\n            (12): Bottleneck(\n              (conv1): Conv2d(1024, 1024, kernel_size=(1, 1), stride=(1, 1), bias=False)\n              (bn1): BatchNorm2d(1024, eps=1e-05, momentum=0.1, affine=True, track_running_stats=True)\n              (conv2): Conv2d(1024, 1024, kernel_size=(3, 3), stride=(1, 1), padding=(1, 1), groups=32, bias=False)\n              (bn2): BatchNorm2d(1024, eps=1e-05, momentum=0.1, affine=True, track_running_stats=True)\n              (conv3): Conv2d(1024, 1024, kernel_size=(1, 1), stride=(1, 1), bias=False)\n              (bn3): BatchNorm2d(1024, eps=1e-05, momentum=0.1, affine=True, track_running_stats=True)\n              (relu): ReLU(inplace=True)\n            )\n            (13): Bottleneck(\n              (conv1): Conv2d(1024, 1024, kernel_size=(1, 1), stride=(1, 1), bias=False)\n              (bn1): BatchNorm2d(1024, eps=1e-05, momentum=0.1, affine=True, track_running_stats=True)\n              (conv2): Conv2d(1024, 1024, kernel_size=(3, 3), stride=(1, 1), padding=(1, 1), groups=32, bias=False)\n              (bn2): BatchNorm2d(1024, eps=1e-05, momentum=0.1, affine=True, track_running_stats=True)\n              (conv3): Conv2d(1024, 1024, kernel_size=(1, 1), stride=(1, 1), bias=False)\n              (bn3): BatchNorm2d(1024, eps=1e-05, momentum=0.1, affine=True, track_running_stats=True)\n              (relu): ReLU(inplace=True)\n            )\n            (14): Bottleneck(\n              (conv1): Conv2d(1024, 1024, kernel_size=(1, 1), stride=(1, 1), bias=False)\n              (bn1): BatchNorm2d(1024, eps=1e-05, momentum=0.1, affine=True, track_running_stats=True)\n              (conv2): Conv2d(1024, 1024, kernel_size=(3, 3), stride=(1, 1), padding=(1, 1), groups=32, bias=False)\n              (bn2): BatchNorm2d(1024, eps=1e-05, momentum=0.1, affine=True, track_running_stats=True)\n              (conv3): Conv2d(1024, 1024, kernel_size=(1, 1), stride=(1, 1), bias=False)\n              (bn3): BatchNorm2d(1024, eps=1e-05, momentum=0.1, affine=True, track_running_stats=True)\n              (relu): ReLU(inplace=True)\n            )\n            (15): Bottleneck(\n              (conv1): Conv2d(1024, 1024, kernel_size=(1, 1), stride=(1, 1), bias=False)\n              (bn1): BatchNorm2d(1024, eps=1e-05, momentum=0.1, affine=True, track_running_stats=True)\n              (conv2): Conv2d(1024, 1024, kernel_size=(3, 3), stride=(1, 1), padding=(1, 1), groups=32, bias=False)\n              (bn2): BatchNorm2d(1024, eps=1e-05, momentum=0.1, affine=True, track_running_stats=True)\n              (conv3): Conv2d(1024, 1024, kernel_size=(1, 1), stride=(1, 1), bias=False)\n              (bn3): BatchNorm2d(1024, eps=1e-05, momentum=0.1, affine=True, track_running_stats=True)\n              (relu): ReLU(inplace=True)\n            )\n            (16): Bottleneck(\n              (conv1): Conv2d(1024, 1024, kernel_size=(1, 1), stride=(1, 1), bias=False)\n              (bn1): BatchNorm2d(1024, eps=1e-05, momentum=0.1, affine=True, track_running_stats=True)\n              (conv2): Conv2d(1024, 1024, kernel_size=(3, 3), stride=(1, 1), padding=(1, 1), groups=32, bias=False)\n              (bn2): BatchNorm2d(1024, eps=1e-05, momentum=0.1, affine=True, track_running_stats=True)\n              (conv3): Conv2d(1024, 1024, kernel_size=(1, 1), stride=(1, 1), bias=False)\n              (bn3): BatchNorm2d(1024, eps=1e-05, momentum=0.1, affine=True, track_running_stats=True)\n              (relu): ReLU(inplace=True)\n            )\n            (17): Bottleneck(\n              (conv1): Conv2d(1024, 1024, kernel_size=(1, 1), stride=(1, 1), bias=False)\n              (bn1): BatchNorm2d(1024, eps=1e-05, momentum=0.1, affine=True, track_running_stats=True)\n              (conv2): Conv2d(1024, 1024, kernel_size=(3, 3), stride=(1, 1), padding=(1, 1), groups=32, bias=False)\n              (bn2): BatchNorm2d(1024, eps=1e-05, momentum=0.1, affine=True, track_running_stats=True)\n              (conv3): Conv2d(1024, 1024, kernel_size=(1, 1), stride=(1, 1), bias=False)\n              (bn3): BatchNorm2d(1024, eps=1e-05, momentum=0.1, affine=True, track_running_stats=True)\n              (relu): ReLU(inplace=True)\n            )\n            (18): Bottleneck(\n              (conv1): Conv2d(1024, 1024, kernel_size=(1, 1), stride=(1, 1), bias=False)\n              (bn1): BatchNorm2d(1024, eps=1e-05, momentum=0.1, affine=True, track_running_stats=True)\n              (conv2): Conv2d(1024, 1024, kernel_size=(3, 3), stride=(1, 1), padding=(1, 1), groups=32, bias=False)\n              (bn2): BatchNorm2d(1024, eps=1e-05, momentum=0.1, affine=True, track_running_stats=True)\n              (conv3): Conv2d(1024, 1024, kernel_size=(1, 1), stride=(1, 1), bias=False)\n              (bn3): BatchNorm2d(1024, eps=1e-05, momentum=0.1, affine=True, track_running_stats=True)\n              (relu): ReLU(inplace=True)\n            )\n            (19): Bottleneck(\n              (conv1): Conv2d(1024, 1024, kernel_size=(1, 1), stride=(1, 1), bias=False)\n              (bn1): BatchNorm2d(1024, eps=1e-05, momentum=0.1, affine=True, track_running_stats=True)\n              (conv2): Conv2d(1024, 1024, kernel_size=(3, 3), stride=(1, 1), padding=(1, 1), groups=32, bias=False)\n              (bn2): BatchNorm2d(1024, eps=1e-05, momentum=0.1, affine=True, track_running_stats=True)\n              (conv3): Conv2d(1024, 1024, kernel_size=(1, 1), stride=(1, 1), bias=False)\n              (bn3): BatchNorm2d(1024, eps=1e-05, momentum=0.1, affine=True, track_running_stats=True)\n              (relu): ReLU(inplace=True)\n            )\n            (20): Bottleneck(\n              (conv1): Conv2d(1024, 1024, kernel_size=(1, 1), stride=(1, 1), bias=False)\n              (bn1): BatchNorm2d(1024, eps=1e-05, momentum=0.1, affine=True, track_running_stats=True)\n              (conv2): Conv2d(1024, 1024, kernel_size=(3, 3), stride=(1, 1), padding=(1, 1), groups=32, bias=False)\n              (bn2): BatchNorm2d(1024, eps=1e-05, momentum=0.1, affine=True, track_running_stats=True)\n              (conv3): Conv2d(1024, 1024, kernel_size=(1, 1), stride=(1, 1), bias=False)\n              (bn3): BatchNorm2d(1024, eps=1e-05, momentum=0.1, affine=True, track_running_stats=True)\n              (relu): ReLU(inplace=True)\n            )\n            (21): Bottleneck(\n              (conv1): Conv2d(1024, 1024, kernel_size=(1, 1), stride=(1, 1), bias=False)\n              (bn1): BatchNorm2d(1024, eps=1e-05, momentum=0.1, affine=True, track_running_stats=True)\n              (conv2): Conv2d(1024, 1024, kernel_size=(3, 3), stride=(1, 1), padding=(1, 1), groups=32, bias=False)\n              (bn2): BatchNorm2d(1024, eps=1e-05, momentum=0.1, affine=True, track_running_stats=True)\n              (conv3): Conv2d(1024, 1024, kernel_size=(1, 1), stride=(1, 1), bias=False)\n              (bn3): BatchNorm2d(1024, eps=1e-05, momentum=0.1, affine=True, track_running_stats=True)\n              (relu): ReLU(inplace=True)\n            )\n            (22): Bottleneck(\n              (conv1): Conv2d(1024, 1024, kernel_size=(1, 1), stride=(1, 1), bias=False)\n              (bn1): BatchNorm2d(1024, eps=1e-05, momentum=0.1, affine=True, track_running_stats=True)\n              (conv2): Conv2d(1024, 1024, kernel_size=(3, 3), stride=(1, 1), padding=(1, 1), groups=32, bias=False)\n              (bn2): BatchNorm2d(1024, eps=1e-05, momentum=0.1, affine=True, track_running_stats=True)\n              (conv3): Conv2d(1024, 1024, kernel_size=(1, 1), stride=(1, 1), bias=False)\n              (bn3): BatchNorm2d(1024, eps=1e-05, momentum=0.1, affine=True, track_running_stats=True)\n              (relu): ReLU(inplace=True)\n            )\n          )\n          (layer4): Sequential(\n            (0): Bottleneck(\n              (conv1): Conv2d(1024, 2048, kernel_size=(1, 1), stride=(1, 1), bias=False)\n              (bn1): BatchNorm2d(2048, eps=1e-05, momentum=0.1, affine=True, track_running_stats=True)\n              (conv2): Conv2d(2048, 2048, kernel_size=(3, 3), stride=(2, 2), padding=(1, 1), groups=32, bias=False)\n              (bn2): BatchNorm2d(2048, eps=1e-05, momentum=0.1, affine=True, track_running_stats=True)\n              (conv3): Conv2d(2048, 2048, kernel_size=(1, 1), stride=(1, 1), bias=False)\n              (bn3): BatchNorm2d(2048, eps=1e-05, momentum=0.1, affine=True, track_running_stats=True)\n              (relu): ReLU(inplace=True)\n              (downsample): Sequential(\n                (0): Conv2d(1024, 2048, kernel_size=(1, 1), stride=(2, 2), bias=False)\n                (1): BatchNorm2d(2048, eps=1e-05, momentum=0.1, affine=True, track_running_stats=True)\n              )\n            )\n            (1): Bottleneck(\n              (conv1): Conv2d(2048, 2048, kernel_size=(1, 1), stride=(1, 1), bias=False)\n              (bn1): BatchNorm2d(2048, eps=1e-05, momentum=0.1, affine=True, track_running_stats=True)\n              (conv2): Conv2d(2048, 2048, kernel_size=(3, 3), stride=(1, 1), padding=(1, 1), groups=32, bias=False)\n              (bn2): BatchNorm2d(2048, eps=1e-05, momentum=0.1, affine=True, track_running_stats=True)\n              (conv3): Conv2d(2048, 2048, kernel_size=(1, 1), stride=(1, 1), bias=False)\n              (bn3): BatchNorm2d(2048, eps=1e-05, momentum=0.1, affine=True, track_running_stats=True)\n              (relu): ReLU(inplace=True)\n            )\n            (2): Bottleneck(\n              (conv1): Conv2d(2048, 2048, kernel_size=(1, 1), stride=(1, 1), bias=False)\n              (bn1): BatchNorm2d(2048, eps=1e-05, momentum=0.1, affine=True, track_running_stats=True)\n              (conv2): Conv2d(2048, 2048, kernel_size=(3, 3), stride=(1, 1), padding=(1, 1), groups=32, bias=False)\n              (bn2): BatchNorm2d(2048, eps=1e-05, momentum=0.1, affine=True, track_running_stats=True)\n              (conv3): Conv2d(2048, 2048, kernel_size=(1, 1), stride=(1, 1), bias=False)\n              (bn3): BatchNorm2d(2048, eps=1e-05, momentum=0.1, affine=True, track_running_stats=True)\n              (relu): ReLU(inplace=True)\n            )\n          )\n          (avgpool): AdaptiveAvgPool2d(output_size=(1, 1))\n          (fc): Identity()\n        )\n      )\n    )\n    (decoder_blocks): DecoderNetwork(\n      (decoder1): DecoderBlock(\n        (upsample): Upsample(scale_factor=2.0, mode='bilinear')\n        (conv1): Conv2d(3072, 256, kernel_size=(3, 3), stride=(1, 1), padding=(1, 1))\n        (bn1): BatchNorm2d(256, eps=1e-05, momentum=0.1, affine=True, track_running_stats=True)\n        (relu): ReLU(inplace=True)\n        (conv2): Conv2d(256, 256, kernel_size=(3, 3), stride=(1, 1), padding=(1, 1))\n        (bn2): BatchNorm2d(256, eps=1e-05, momentum=0.1, affine=True, track_running_stats=True)\n      )\n      (decoder2): DecoderBlock(\n        (upsample): Upsample(scale_factor=2.0, mode='bilinear')\n        (conv1): Conv2d(768, 128, kernel_size=(3, 3), stride=(1, 1), padding=(1, 1))\n        (bn1): BatchNorm2d(128, eps=1e-05, momentum=0.1, affine=True, track_running_stats=True)\n        (relu): ReLU(inplace=True)\n        (conv2): Conv2d(128, 128, kernel_size=(3, 3), stride=(1, 1), padding=(1, 1))\n        (bn2): BatchNorm2d(128, eps=1e-05, momentum=0.1, affine=True, track_running_stats=True)\n      )\n      (decoder3): DecoderBlock(\n        (upsample): Upsample(scale_factor=2.0, mode='bilinear')\n        (conv1): Conv2d(384, 64, kernel_size=(3, 3), stride=(1, 1), padding=(1, 1))\n        (bn1): BatchNorm2d(64, eps=1e-05, momentum=0.1, affine=True, track_running_stats=True)\n        (relu): ReLU(inplace=True)\n        (conv2): Conv2d(64, 64, kernel_size=(3, 3), stride=(1, 1), padding=(1, 1))\n        (bn2): BatchNorm2d(64, eps=1e-05, momentum=0.1, affine=True, track_running_stats=True)\n      )\n      (decoder4): DecoderBlock(\n        (upsample): Upsample(scale_factor=2.0, mode='bilinear')\n        (conv1): Conv2d(128, 32, kernel_size=(3, 3), stride=(1, 1), padding=(1, 1))\n        (bn1): BatchNorm2d(32, eps=1e-05, momentum=0.1, affine=True, track_running_stats=True)\n        (relu): ReLU(inplace=True)\n        (conv2): Conv2d(32, 32, kernel_size=(3, 3), stride=(1, 1), padding=(1, 1))\n        (bn2): BatchNorm2d(32, eps=1e-05, momentum=0.1, affine=True, track_running_stats=True)\n      )\n      (decoder5): DecoderBlock(\n        (upsample): Upsample(scale_factor=2.0, mode='bilinear')\n        (conv1): Conv2d(32, 16, kernel_size=(3, 3), stride=(1, 1), padding=(1, 1))\n        (bn1): BatchNorm2d(16, eps=1e-05, momentum=0.1, affine=True, track_running_stats=True)\n        (relu): ReLU(inplace=True)\n        (conv2): Conv2d(16, 16, kernel_size=(3, 3), stride=(1, 1), padding=(1, 1))\n        (bn2): BatchNorm2d(16, eps=1e-05, momentum=0.1, affine=True, track_running_stats=True)\n      )\n    )\n    (final_conv): Conv2d(16, 2, kernel_size=(3, 3), stride=(1, 1), padding=(1, 1))\n  )\n)"
}